chatbot-deployment-main/data.pth (torch, 4991 bytes, 6 tensors)

l1.weight f4 [8, 54]
0	0x3f4ac0d2	0.7920047
1	0x3d101481	0.035175804
2	0xbe99f1ea	-0.30067378
3	0x3eac4b7e	0.33651346
4	0x3e8ab16c	0.27088487
5	0xbed66305	-0.4187242
6	0x3be37a2d	0.0069420547
7	0xbe21c625	-0.15798242
8	0xbe8490f7	-0.2589185
9	0xbea402e3	-0.32033452
10	0x3e95a25b	0.2922543
11	0x3ef55d69	0.4792283
12	0x3eea06fc	0.45708454
13	0x3ef3231a	0.47487718
14	0xbcb6a28b	-0.022294303
15	0x3ecf7f95	0.40527025
16	0x3effe1f9	0.4997709
17	0xbebef366	-0.37295073
18	0x3ee0b270	0.43886137
19	0x3ed7ebe7	0.42172167
20	0x3f0e9642	0.55698025
21	0x3f0c9d57	0.5492758
22	0x3e937f78	0.28808188
23	0x3f12a7ac	0.57287097
24	0x3e431aa9	0.19053139
25	0x3ec5afdc	0.38610733
26	0x3ed37245	0.41298118
27	0xbf06eded	-0.52706796
28	0x3dbde75d	0.09272645
29	0xbea5d759	-0.3239086
30	0xbe719bc1	-0.23594572
31	0x3eceaa88	0.4036448
32	0x3f05e979	0.52309376
33	0xbea104a2	-0.31448847
34	0xbe722150	-0.2364552
35	0x3e91a3d5	0.28445306
36	0x3e5c44b9	0.2151059
37	0xbe360743	-0.17776208
38	0xbe02b0b7	-0.12762724
39	0xbdc64cc0	-0.09682608
40	0xbe5a68f9	-0.21329106
41	0x3f0e0723	0.5547964
42	0x3ee6ed3f	0.4510288
43	0xbd834289	-0.06409175
44	0x3e904279	0.28175715
45	0xbe411fd8	-0.18859804
46	0x3fb14d2c	1.3851676
47	0x3f3a2333	0.7270996
48	0x3edaf495	0.42764726
49	0x3f27034d	0.6523941
50	0x3e992d3b	0.2991732
51	0x3f0dc699	0.5538116
52	0xbe06078e	-0.1308882
53	0x3e6f3744	0.23360926
54	0xbda2f384	-0.07956603
55	0xbdfc7e66	-0.12328796
56	0x3f0c1b74	0.5472939
57	0xbd874424	-0.06604794
58	0x3ef89ffc	0.48559558
59	0xbe832e86	-0.25621432
60	0x3ef0f3de	0.47061056
61	0x3ec30e5c	0.38096893
62	0x3f03f21e	0.51541317
63	0x3f000983	0.50014514
64	0xbdd2bc61	-0.10289837
65	0xbe9bdf0a	-0.30443603
66	0x3f2d5249	0.6770368
67	0xbd956382	-0.0729437
68	0x3df53003	0.11972048
69	0xbe56505b	-0.2092909
70	0xbd1449c8	-0.036203176
71	0xbe832d5f	-0.25620553
72	0x3ea386c7	0.31938764
73	0xbe79e312	-0.24403027
74	0xbe07169d	-0.1319222
75	0xbe39dd49	-0.1815082
76	0xbe832035	-0.2561051
77	0xbee34188	-0.44385934
78	0x3e14e219	0.14539374
79	0xbde055bd	-0.10953853
80	0x3f2a080f	0.66418546
81	0x3d53f240	0.0517447
82	0x3ec3cc96	0.38242024
83	0xbdc56472	-0.09638299
84	0xbe6a8a1c	-0.22904247
85	0xbe320c76	-0.17387566
86	0xbd895589	-0.06705768
87	0x3f0da4a0	0.5532932
88	0x3e54160d	0.20711537
89	0xbe10a751	-0.14126326
90	0x3eeafc0a	0.45895416
91	0x3f1b8af0	0.60758877
92	0x3eda4bda	0.42635995
93	0x3eefa91a	0.46808702
94	0xbed6a8fa	-0.41925794
95	0x3ef5b5b9	0.47990206
96	0xbdcfa06d	-0.10138021
97	0x3db73697	0.08945959
98	0x3f087493	0.5330288
99	0x3ea8e228	0.32985044
100	0xbf191ff8	-0.59814405
101	0xbd369553	-0.044576
102	0x3e85efac	0.26159418
103	0x3ee7a0b4	0.45239794
104	0xbeb2b254	-0.3490168
105	0x3e5cb46e	0.21553203
106	0x3f04d38c	0.51885295
107	0x3ec8e3da	0.39236337
108	0x3e57d4fe	0.21077344
109	0x3f06dd2a	0.5268122
110	0x3e8df071	0.27722505
111	0x3d985b1f	0.07439255
112	0x3e2d3bae	0.16917297
113	0x3e9865e0	0.29765224
114	0x3e989468	0.29800725
115	0x3e93214f	0.2873635
116	0x3eb508ed	0.35358372
117	0x3e4aa75f	0.1979041
118	0xbe82121e	-0.25404447
119	0xbe7321a1	-0.23743297
120	0x3d2f08de	0.042733066
121	0xbe5a09e5	-0.21292837
122	0x3ee244f3	0.4419323
123	0xbe6183b8	-0.22022903
124	0xbeb420f7	-0.351814
125	0x3ee7cb84	0.45272458
126	0xbe7ffaf6	-0.24998078
127	0xbed09430	-0.40738058
128	0x3dd5c0ed	0.10437188
129	0xbe830b26	-0.25594443
130	0xbec48dd7	-0.38389465
131	0xbe323cac	-0.17405957
132	0x3e343ce2	0.1760135
133	0xbd207366	-0.039172553
134	0xbe779c94	-0.24180824
135	0x3f21c4d8	0.63190985
136	0xbcf834e0	-0.03029865
137	0x3eaee595	0.34159532
138	0x3e57e78e	0.21084425
139	0xbe7fb2ae	-0.24970505
140	0xbd171957	-0.0368894
141	0x3eab4e65	0.33458248
142	0x3f1f917b	0.6233136
143	0xbe45e904	-0.1932717
144	0xba89e679	-0.0010520957
145	0x3ea04787	0.3130457
146	0x3e950bd2	0.2911058
147	0x3ea2f4f0	0.31827497
148	0x3e062f41	0.13103963
149	0xbea1b3fc	-0.3158263
150	0xbd81ac98	-0.06331748
151	0x3edccaaf	0.43123385
152	0xbb90932b	-0.004412075
153	0x3f01c5b0	0.5069227
154	0x3f450685	0.76963073
155	0x3e068a19	0.13138618
156	0x3dd20bce	0.10256158
157	0xbf001528	-0.5003228
158	0xbe8ff4f2	-0.28116566
159	0xbeab544c	-0.3346275
160	0x3ea0027c	0.31251895
161	0x3e31447b	0.1731128
162	0x3f58a53d	0.84627134
163	0x3efc04f0	0.49222517
164	0x3e8fc7ae	0.2808203
165	0x3e8804bc	0.26566112
166	0x3e62ce42	0.22148994
167	0xbf1e99b7	-0.619533
168	0x3e2d5487	0.16926776
169	0x3ee559e8	0.44795156
170	0x3d50e019	0.050994966
171	0x3ed902ae	0.42384857
172	0x3ecc4b23	0.39901075
173	0xbe9ede59	-0.31029013
174	0x3bcfd3a1	0.006342367
175	0xbe1354e7	-0.14387856
176	0x3ea9c63d	0.33159056
177	0xbe832957	-0.25617477
178	0x3ef15af4	0.47139704
179	0xbf24d41a	-0.6438614
180	0xbe054573	-0.13014774
181	0x3f1af66b	0.60532254
182	0x3f218675	0.6309579
183	0x3eed56db	0.46355328
184	0x3f05c400	0.522522
185	0x3eb2eab6	0.34944695
186	0x3cc87e79	0.02447437
187	0x3ef6ace1	0.4817877
188	0xbe8b191a	-0.27167588
189	0x3ef34e0d	0.47520486
190	0xbe932c4c	-0.28744733
191	0x3ed2a1b1	0.41138986
192	0xbed925c6	-0.4241163
193	0xbe9d7ba4	-0.30758393
194	0x3efa7288	0.48915505
195	0x3e191ab8	0.14951599
196	0x3eeeb06a	0.46618968
197	0xbd04f19d	-0.032456983
198	0xbe1d7405	-0.15376289
199	0x3d986922	0.074419275
200	0x3e2a4d10	0.1663096
201	0x3e2d6ad1	0.16935278
202	0xbf0a5ef4	-0.54051137
203	0xbe9f78ad	-0.31146756
204	0xbe64a745	-0.22329433
205	0x3f09426c	0.53616977
206	0xbe0d3407	-0.13789378
207	0x3f08a2bc	0.5337331
208	0x3f946f79	1.1596519
209	0x3f009c18	0.5023818
210	0x3e670cba	0.22563449
211	0xbef9b96e	-0.48774284
212	0xbe690c6f	-0.2275865
213	0xbe837f40	-0.25683022
214	0x3e856681	0.26054767
215	0x3ead3aea	0.3383401
216	0xbe1710ee	-0.14752552
217	0xbed3250c	-0.41239202
218	0x3e9d05a6	0.30668372
219	0xbd7a33c3	-0.06108452
220	0x3c80d546	0.015726697
221	0xbc537d02	-0.012908222
222	0x3ebdf75e	0.3710279
223	0x3da32baf	0.07967316
224	0x3e449d4d	0.1920063
225	0x3ca006b7	0.019534452
226	0x3c906297	0.017625136
227	0x3ea3f5ff	0.32023618
228	0x3eee64c1	0.46561244
229	0x3ed7bc3e	0.42135805
230	0xbe20eff2	-0.15716532
231	0x3e725142	0.2366381
232	0x3d3b0b8c	0.04566531
233	0xbc1337a8	-0.008985437
234	0x3eb5f611	0.35539296
235	0x3e109b1b	0.14121668
236	0x3d67c1e4	0.056581393
237	0x3d5bf618	0.05370149
238	0x3e5737c8	0.21017373
239	0x3deefb22	0.116689935
240	0x3ee343bf	0.44387624
241	0x3d0c806f	0.03430217
242	0x3ef6b718	0.48186564
243	0xbee23eb2	-0.44188458
244	0x3e944e86	0.2896616
245	0xbe948f39	-0.2901552
246	0xbd4033c4	-0.046924368
247	0x3ee954da	0.4557255
248	0xbde3ec22	-0.11129023
249	0x3e2e313a	0.17010966
250	0x3cc3f0db	0.02391856
251	0x3e8b5167	0.27210543
252	0x3ecef827	0.404237
253	0x3ed08baf	0.4073157
254	0x3eab6d98	0.3348205
255	0x3e767e02	0.24071506

l1.bias f4 [8]
0	0x3f02cb30	0.5109129
1	0x3e831bbb	0.25607094
2	0x3f369d0d	0.7133339
3	0x3f4bb9dd	0.7958048
4	0x3eea135e	0.457179
5	0x3f0d4fbc	0.5519979
6	0x3efbc0f5	0.49170652
7	0x3f30941b	0.6897599

l2.weight f4 [8, 8]
0	0x3fa2a2d9	1.2705947
1	0xbf8a391f	-1.0798682
2	0xbe8a7355	-0.27041116
3	0x3f964a9b	1.1741518
4	0x3ecbe18f	0.39820525
5	0x3ed4d3e1	0.415679
6	0xbf419a47	-0.75626034
7	0x3f24f854	0.6444142
8	0xbf0b67c7	-0.54455227
9	0x3f606b6c	0.8766391
10	0x3f8074b6	1.0035617
11	0x3f430564	0.761801
12	0xbecc2602	-0.39872748
13	0xbf33feb0	-0.703105
14	0x3fa15fb3	1.260733
15	0x3e28e369	0.16493
16	0xbddb433b	-0.107061826
17	0x3f8274b8	1.019187
18	0x3d111360	0.035418868
19	0xbe2cecc9	-0.16887201
20	0x3f65658f	0.8960809
21	0x3da42d79	0.08016486
22	0x3f0563df	0.52105516
23	0x3f5fa49e	0.8736056
24	0x3f7fc07d	0.9990309
25	0xbf0de9b7	-0.55434746
26	0x3f144138	0.57912016
27	0x3f8c8b4d	1.0980011
28	0xbf4329fc	-0.7623594
29	0xbe93bfb0	-0.28857183
30	0x3f042e58	0.51633215
31	0xbf6d9095	-0.9279874
32	0x3f99ac26	1.200566
33	0x3f971951	1.1804601
34	0xbec0e976	-0.37678117
35	0x3f3cb7f3	0.73718184
36	0x3f9f2e54	1.2436013
37	0x3f8587da	1.0432084
38	0xbf11fb60	-0.5702419
39	0xbe210642	-0.15725043
40	0x3f4a70cd	0.7907837
41	0xbeb7a57c	-0.35868442
42	0x3ecc24c0	0.39871788
43	0x3eb18bde	0.34677023
44	0x3e604df2	0.21904734
45	0xbf098ef9	-0.53733784
46	0x3f922d0f	1.1420001
47	0xbf852c47	-1.0404137
48	0x3a927b48	0.0011175657
49	0xbf598c5a	-0.84979784
50	0x3eeb5140	0.45960426
51	0xbf0d6d55	-0.5524495
52	0x3ec86227	0.39137384
53	0xbf47ea2e	-0.78091705
54	0x3fad3803	1.3532718
55	0x3f9f18f7	1.2429494
56	0xbe21663e	-0.15761659
57	0xbedb454f	-0.42826316
58	0x3f87662d	1.0578057
59	0x3f8bc990	1.0920887
60	0xbf0ea4b4	-0.5572007
61	0x3ee95af3	0.455772
62	0x3f1a963a	0.6038548
63	0x3ed90b62	0.42391497

l2.bias f4 [8]
0	0x3f41b6aa	0.7566935
1	0x3d953953	0.07286324
2	0xbd6974bf	-0.056996103
3	0x3e8343c1	0.2563763
4	0x3ee0de24	0.4391948
5	0xbe489e85	-0.1959172
6	0x3f065888	0.5247884
7	0x3f4919b8	0.7855487

l3.weight f4 [7, 8]
0	0x3ea066f2	0.3132854
1	0xbf8d416b	-1.1035589
2	0x3edde1c7	0.43336317
3	0xbf3a38cb	-0.7274291
4	0xbe041613	-0.12899046
5	0x3edf4ed0	0.43614817
6	0x3f4afbae	0.7929028
7	0xbf7a2c35	-0.97723705
8	0xbf99fa3a	-1.2029488
9	0x3f0dad99	0.55343014
10	0xbe77ac95	-0.24186929
11	0x3ef0e310	0.47048235
12	0xbf60dd66	-0.8783783
13	0x3f2c15bd	0.6722067
14	0xbd26bab6	-0.040705405
15	0x3ed38503	0.41312417
16	0xbedd1719	-0.43181685
17	0x3ead67f6	0.33868378
18	0x3e08f1e3	0.13373522
19	0xbf1bc1e3	-0.6084272
20	0xbf9d2a18	-1.2278471
21	0xbedc0863	-0.4297515
22	0x3f85b5f2	1.044615
23	0x3eebd113	0.46057948
24	0x3f45c921	0.77260023
25	0xbf498a79	-0.7872692
26	0xbf199ee6	-0.60008085
27	0x3e8577ca	0.26067954
28	0x3ed7114e	0.4200539
29	0xbfbcc12b	-1.474645
30	0xbf9609d9	-1.1721755
31	0x3ef20015	0.47265688
32	0xbc9334d3	-0.017969524
33	0xbf294972	-0.66127694
34	0x3e68799d	0.22702642
35	0xbf6b03c6	-0.9180263
36	0x3f584d6a	0.84493124
37	0x3e8e3eea	0.27782375
38	0xbf824bd2	-1.0179389
39	0xbfa3493d	-1.2756726
40	0xbf375220	-0.7160969
41	0x3f02a883	0.5103838
42	0x3f050e9d	0.51975423
43	0xbf7ae8cc	-0.9801147
44	0x3e98713c	0.2977389
45	0xbf922c5a	-1.1419785
46	0xbecf96be	-0.40544695
47	0x3df4f6f4	0.11961165
48	0x3e1b8be4	0.15190083
49	0xbbc644ab	-0.0060506663
50	0xbf677096	-0.9040617
51	0x3f250812	0.6446544
52	0xbe898db1	-0.26865914
53	0x3f757064	0.9587462
54	0xbf22d124	-0.63600373
55	0x3dd5c8c1	0.104386814

l3.bias f4 [7]
0	0xbe4000e5	-0.18750341
1	0xbf0a9816	-0.54138315
2	0x3ea744d5	0.32669702
3	0x3ef2af2c	0.4739927
4	0x3e9b1de8	0.30296254
5	0xbdb0b074	-0.08627406
6	0x3dee9fec	0.116515964
